ml-workbench-service/hardware_optimization_output/models/sample_pt_model.pt (torch, 14104 bytes, 5 tensors)

layers.0.weight f4 [64, 10]
-0.18662687 -0.29148048 -0.14146894 -0.176581 -0.26367402 0.24122551 -0.05667326 -0.093880266
-0.14737706 0.074165255 0.07821244 0.1697273 -0.10332668 0.13086641 -0.25681856 0.16506118
0.11545348 0.2190353 0.13328904 0.006131053 -0.041288525 0.17526057 -0.22459888 0.17582494
0.26341262 -0.27089944 -0.29449108 -0.07361032 -0.109509304 -0.11231288 -0.22743244 0.29024187
-0.20833051 -0.26382783 0.05191025 -0.18727371 0.22059092 0.043792814 0.07130408 0.08364141
0.25512722 0.038386703 -0.03498909 -0.06101659 0.06516525 -0.22495216 -0.09629968 0.022083938
0.032571137 -0.10031769 0.067103624 0.17645976 -0.2902237 -0.1965976 -0.30723006 -0.2780382
-0.021127492 0.15599066 0.12497887 -0.29189903 0.27128914 0.16584605 -0.054441065 -0.15709937
0.10106239 -0.079221606 -0.20611712 0.062241703 -0.2607458 0.013869405 -0.0060586035 0.09566617
0.054709613 -0.19570942 0.19595304 -0.020824432 -0.10713023 -0.03670165 0.1869069 -0.0005284548
-0.31150973 0.022447199 -0.18507242 -0.14349322 0.2536457 -0.077818096 0.24911556 0.30411324
0.06278232 0.2597458 0.032681435 -0.09858082 0.18480346 -0.29306617 -0.2381543 -0.20859824
0.25433514 0.2438055 -0.16974881 -0.009792179 0.2954603 -0.28059015 0.193311 0.21717027
-0.25919166 -0.13409317 -0.1622947 0.0025072396 -0.15727904 -0.24554731 0.21249673 0.24758443
0.30340335 0.28388563 -0.22200754 0.20662275 0.13412207 -0.20255068 0.09032303 0.18964049
0.22108665 -0.13007909 -0.3117725 0.20729098 -0.21996525 -0.08647287 0.113634616 -0.11659402
-0.101867005 0.1008119 -0.17263144 -0.2898497 -0.31453976 0.2533975 -0.22956441 0.19964245
-0.05142194 0.24118564 -0.08919072 0.10562807 -0.1633486 0.10336122 -0.07917689 0.03798327
0.052666664 0.26842913 -0.14448246 0.1007092 0.10021165 -0.10194512 -0.18826243 0.06129563
0.15820065 0.25159976 0.20094916 0.08459595 0.03574708 -0.19973014 0.10624695 -0.23178157
-0.31173322 0.18789634 0.08933768 0.21854213 -0.22664317 -0.19445807 0.082510084 0.15692222
-0.23364519 0.09379402 0.124765456 0.06178227 -0.10172017 -0.23382139 -0.08815515 -0.04265791
0.11995503 -0.2763368 -0.06517798 -0.14548136 -0.27287737 0.1744675 0.2320799 -0.1884326
-0.120862514 0.19819012 0.25264946 -0.17162473 0.043391585 -0.26788864 -0.09025021 -0.069413975
0.0057656765 0.2935432 -0.27544835 -0.18687811 -0.1407331 -0.110817626 0.07684022 0.04193455
0.26347074 0.16818061 0.13657072 0.08002126 -0.21347639 0.16983265 0.1372068 0.07115522
-0.23825082 -0.2956292 0.24432102 0.101163566 0.23608056 -0.21873215 0.121222526 0.06957355
0.22687516 0.015528411 -0.060836196 -0.24657038 -0.14677446 0.12648645 0.30265728 0.09094432
-0.18468557 -0.048222035 0.004550904 0.15162703 0.16859648 -0.21630225 -0.30272096 -0.025882006
0.003609091 -0.31043172 0.08110261 0.095220566 0.26359424 -0.27042702 0.29145977 0.21661755
-0.059498936 0.0161857 -0.056763828 -0.07494104 0.21184269 0.26355377 -0.111965284 -0.3111558
0.30565384 0.25943395 0.060765356 0.0941 0.15135744 -0.14953342 -0.18518619 0.18193251
00000000: 1d1b 3fbe ee3c 95be 3cdd 10be a6d1 34be
00000010: 4800 87be d203 773e 3822 68bd 4c44 c0bd
00000020: 03ea 16be f4e3 973d d82d a03d fecc 2d3e
00000030: f09c d3bd d801 063e b97d 83be cc05 293e
00000040: e072 ec3d ca4a 603e ec7c 083e 00e7 c83b
00000050: 281e 29bd 8277 333e 40fd 65be 740b 343e
00000060: 05de 863e 55b3 8abe 89c7 96be 02c1 96bd
00000070: 6a46 e0bd 4c04 e6bd 0de4 68be 959a 943e
00000080: 9854 55be 7114 87be d89f 543d aec4 3fbe
00000090: 96e2 613e 1860 333d e007 923d 304c ab3d
000000a0: 09a0 823e 603b 1d3d b850 0fbd 88ec 79bd
000000b0: 5c75 853d dc59 66be c438 c5bd 60e9 b43c
000000c0: 5069 053d 5c73 cdbd a06d 893d deb1 343e
000000d0: 3398 94be e250 49be 424d 9dbe 065b 8ebe
000000e0: 9013 adbc 04bc 1f3e ecf4 ff3d ca73 95be
000000f0: 69e6 8a3e 8cd3 293e 98fd 5ebd a8de 20be
00000100: ccf9 ce3d f03e a2bd 5e10 53be 28f1 7e3d
00000110: 7980 85be 803c 633c 4087 c6bb a0ec c33d
00000120: 3017 603d 0d68 48be eaa7 483e 0098 aabc
00000130: 1867 dbbd 7854 16bd 8664 3f3e 0088 0aba
00000140: 347e 9fbe 30e3 b73c a083 3dbe e3ef 12be
00000150: d9dd 813e 185f 9fbd 2618 7f3e bbb4 9b3e
00000160: 0494 803d 67fd 843e f8dc 053d bee4 c9bd
00000170: 1e3d 3d3e c50c 96be b9de 73be c79a 55be
00000180: 3738 823e 26a8 793e a2d2 2dbe 606f 20bc
00000190: 9346 973e 83a9 8fbe 52f3 453e e261 5e3e
000001a0: c5b4 84be b84f 09be 9530 26be 8050 243b
000001b0: c20d 21be c170 7bbe be98 593e c686 7d3e
000001c0: af57 9b3e 7559 913e f255 63be ea94 533e
000001d0: 4c57 093e 7269 4fbe 48fb b83d 1e31 423e
000001e0: 8a64 623e 7433 05be a5a0 9fbe 1644 543e
000001f0: 923e 61be b018 b1bd 44b9 e83d d8c8 eebd
00000200: a69f d0bd 7876 ce3d 4cc6 30be 2e67 94be
00000210: 5b0b a1be 51bd 813e ef12 6bbe 126f 4c3e
00000220: d09f 52bd 5ef9 763e a0a9 b6bd 8853 d83d
00000230: db44 27be 0caf d33d 7e27 a2bd 5894 1b3d
00000240: 00b9 573d 8b6f 893e 36f3 13be a040 ce3d
00000250: c43b cd3d 9ac8 d0bd dec7 40be 2011 7b3d
00000260: 5aff 213e afd1 803e 9ec5 4d3e a440 ad3d
00000270: 886b 123d 0f86 4cbe 0098 d93d 2658 6dbe
00000280: 7f9b 9fbe e667 403e acf6 b63d 82c9 5f3e
00000290: 2615 68be 0420 47be 0cfb a83d 38b0 203e
000002a0: af40 6fbe 1417 c03d 0885 ff3d 680f 7d3d
000002b0: aa52 d0bd e06e 6fbe b08a b4bd 10ba 2ebd
000002c0: fcaa f53d 047c 8dbe 087c 85bd 11f9 14be
000002d0: 95b6 8bbe 9ca7 323e 5aa6 6d3e 7af4 40be
000002e0: c486 f7bd 5af2 4a3e 455b 813e 65be 2fbe
000002f0: 60bb 313d b328 89be 1ad5 b8bd ea28 8ebd
00000300: 00ee bc3b 4b4b 963e 9107 8dbe fa5c 3fbe
00000310: 561c 10be 5af4 e2bd 685e 9d3d 90c3 2b3d
00000320: a3e5 863e 8a37 2c3e 32d9 0b3e 30e2 a33d
00000330: 8e99 5abe 9ce8 2d3e f07f 0c3e d4b9 913d
00000340: 06f8 73be b65c 97be 4a2f 7a3e d82e cf3d
00000350: 1abf 713e 52fb 5fbe 8443 f83d 947c 8e3d
00000360: f651 683e e06a 7e3c 602f 79bd f27c 7cbe
00000370: 0b4c 16be aa85 013e e5f5 9a3e 0441 ba3d
00000380: 371e 3dbe 7884 45bd c01f 953b 1e44 1b3e
00000390: 8ea4 2c3e 567e 5dbe 3efe 9abe 8006 d4bc
000003a0: 8086 6c3b e8f0 9ebe 2019 a63d 0003 c33d
000003b0: d3f5 863e 6975 8abe 373a 953e fed0 5d3e
000003c0: 28b5 73bd e097 843c 3081 68bd b07a 99bd
000003d0: 4aed 583e 85f0 863e 0e4e e5bd d04f 9fbe
000003e0: a97e 9c3e 87d4 843e 18e5 783d 80b7 c03d
000003f0: 72fd 1a3e 4a1f 19be 73a1 3dbe 844c 3a3e

layers.0.bias f4 [64]
-0.031191766 0.13285553 0.085011125 -0.25934112 -0.1733034 -0.28123266 0.13516626 0.047857046
0.2605318 -0.17805895 0.1945295 0.008847982 -0.01380229 -0.22992083 -0.27515882 0.11239308
0.30450103 -0.116859674 -0.15868522 0.265664 -0.15896276 0.2931414 0.003794372 0.027236938
0.0021131337 -0.13231978 -0.2445285 0.107126534 -0.19519082 -0.10240525 -0.069730714 0.16290799
0.13709402 -0.092303544 0.029497564 -0.12701215 0.17131332 -0.1296678 -0.14770038 -0.08729957
0.24517664 0.20491281 -0.039058268 -0.16621722 0.06894028 -0.1701334 0.020191282 0.063681275
0.24595484 -0.3137964 -0.16288021 -0.273274 0.15912673 -0.29405776 0.004905015 0.28099623
0.09028372 0.15552437 -0.06874481 0.23894504 0.18610606 0.22625032 -0.18837413 -0.10662942
00000000: e085 ffbc 480b 083e 501a ae3d 5cc8 84be
00000010: 7276 31be bafd 8fbe 0669 0a3e c005 443d
00000020: 6d64 853e 1655 36be be32 473e 20f7 103c
00000030: 0023 62bc 5e70 6bbe 9ee1 8cbe 582e e63d
00000040: 8fe7 9b3e 2054 efbd 617e 22be 1d05 883e
00000050: 22c7 22be a116 963e 00ab 783b 0020 df3c
00000060: 807c 0a3b d67e 07be ae65 7abe 2865 db3d
00000070: 1ae0 47be d8b9 d1bd face 8ebd 5ad1 263e
00000080: 6062 0c3e a409 bdbd e0a4 f13c 790f 02be
00000090: c26c 2f3e a3c7 04be c53e 17be 1eca b2bd
000000a0: 960f 7b3e aad4 513e 90fb 1fbd d934 2abe
000000b0: 9030 8d3d 7337 2ebe 3068 a53c 546b 823d
000000c0: 96db 7b3e eca9 a0be 12ca 26be 92ea 8bbe
000000d0: 1ef2 223e bd8e 96be 40ba a03b bdde 8f3e
000000e0: ace6 b83d c841 1f3e 14ca 8cbd 02ae 743e
000000f0: 9692 3e3e 2aae 673e 26e5 40be 8660 dabd

layers.2.weight f4 [32, 64]
0.09965819 0.040992618 -0.05692722 -0.10299072 0.06382184 0.092162356 -0.048371598 -0.08506918
0.08422187 -0.05155389 -0.058876365 -0.09637375 -0.072606996 0.059209347 0.12428895 -0.042227462
-0.06010537 0.06887309 0.1195091 0.120780185 0.011585504 0.08160178 -0.09549737 -0.07141286
-0.00038132071 -0.096515924 0.012497246 -0.0655565 0.05442819 0.0008851141 -0.06195575 -0.08679053
0.04966584 -0.085177705 -0.03834404 -0.12265262 0.034627527 0.0014957786 -0.0873428 -0.113990635
-0.05810097 -0.061175212 0.04907964 -0.10083081 0.04924415 -0.028094038 -0.07448563 0.0068813115
-0.024125308 -0.050495893 -0.10620122 -0.10052143 -0.052992135 -0.11464019 -0.011867344 0.0026682615
0.0036349148 0.113535956 0.09162952 -0.058972657 0.110963106 -0.05194412 -0.010890931 0.10441716
0.021622762 0.015075013 -0.110514864 -0.08646658 0.009987175 0.10652344 0.044495866 -0.07309538
0.042735055 -0.039339766 0.018332303 0.014205709 -0.008050695 -0.10440436 0.10176219 -0.09203757
0.109168276 0.017334372 0.0601656 0.07098125 -0.0017677248 -0.07615611 0.112143114 0.09202276
-0.0074783713 -0.034555703 0.11285095 0.055206135 0.09482579 -0.0452957 -0.03293033 0.0041272044
-0.094313025 -0.100408 -0.1170398 -0.06956552 -0.08593558 -0.082816124 -0.024602473 0.09460288
0.084223226 0.11048274 0.010364801 0.09190351 0.06925866 -0.019725114 0.0694495 -0.06352566
0.047030523 0.012637839 0.027418077 -0.10337761 0.070788816 -0.041856706 -0.08615668 0.07204047
0.078054965 -0.0041886866 8.1941485e-05 0.026980996 0.10878979 -0.11562845 0.015958816 0.06339909
-0.087579906 -0.068491444 -0.07915075 -0.017503232 -0.083016396 -0.07418722 -0.09680486 -0.103949875
0.020247743 0.06921835 0.033867404 -0.0010149926 -0.11590858 0.11392124 0.0030446649 0.10429487
0.06048943 0.019962698 0.069981486 0.07136512 -0.10327862 -0.060098454 0.011535272 -0.090902254
-0.012836814 0.10260548 0.074998856 -0.057791054 -0.057737976 0.073729515 -0.09732631 -0.09192026
0.056032747 -0.108747736 -0.08289237 0.11336833 0.08430132 0.0012756437 0.046852604 0.049359173
-0.1087337 -0.06255914 0.08379431 -0.10486202 0.099015 -0.08922921 0.073856264 0.01535219
0.036028206 -0.05382201 0.09026906 -0.073434904 -0.07496764 -0.009460062 -0.03798504 -0.09697999
0.023366213 0.110686585 -0.1090395 -0.07803801 0.056275457 -0.014275432 0.091243476 0.008178443
0.07179496 -0.091115266 -0.04590386 0.066649884 -0.03770931 -0.106872275 0.019458622 0.04915765
0.11655979 -0.082543805 0.024227813 -0.091583 0.11445412 0.10379547 -0.024344832 0.054097712
0.024117172 0.088321134 0.07222113 -0.060155585 0.06158939 -0.08233753 0.02961202 0.06348616
-0.05070454 -0.04653369 -0.025927126 0.034618348 0.06658688 -0.0868081 0.01726067 -0.112180784
0.029517025 -0.08683494 0.05954057 0.103714645 0.012334868 0.07542297 0.028741017 -0.031963065
-0.11742066 0.016799003 0.0040851533 -0.05654566 -0.12457597 -0.08771595 -0.11487244 -0.045395568
-0.09316443 0.08806251 -0.10757902 -0.028186932 0.09145972 -0.04018104 -0.069832996 0.00738582
0.04399939 -0.047634646 -0.08920851 -0.06589675 -0.044097334 -0.12323931 -0.09189977 -0.09411338
00000000: 9819 cc3d e0e7 273d 842c 69bd ccec d2bd
00000010: 06b5 823d 9ebf bc3d 4c21 46bd c038 aebd
00000020: 847c ac3d 2c2a 53bd 5828 71bd 9a5f c5bd
00000030: fab2 94bd 8085 723d 348b fe3d b4f6 2cbd
00000040: 0c31 76bd 560d 8d3d 30c1 f43d 9a5b f73d
00000050: 20d1 3d3c d61e a73d 2094 c3bd e840 92bd
00000060: 00ec c7b9 24aa c5bd 40c1 4c3c 7c42 86bd
00000070: 18f0 5e3d 0007 683a 50c5 7dbd 3cbf b1bd
00000080: 686e 4b3d a671 aebd a40e 1dbd 4c31 fbbd
00000090: 98d5 0d3d 000e c43a c8e0 b2bd ec73 e9bd
000000a0: 48fb 6dbd dc92 7abd bc07 493d 6280 cebd
000000b0: 3cb4 493d 7825 e6bc ec8b 98bd a07c e13b
000000c0: 70a2 c5bc c8d4 4ebd 0680 d9bd 2ede cdbd
000000d0: 480e 59bd 7ac8 eabd 406f 42bc 00de 2e3b
000000e0: c037 6e3b 8a85 e83d 42a8 bb3d 508d 71bd
000000f0: a040 e33d 5cc3 54bd e06f 32bc aad8 d53d
00000100: 3822 b13c 30fd 763c 9e55 e2bd 6415 b1bd
00000110: 40a1 233c f628 da3d 4c41 363d 08b3 95bd
00000120: f40a 2f3d bc22 21bd a02d 963c 10bf 683c
00000130: 10e7 03bc f4d1 d5bd b268 d03d 327e bcbd
00000140: 9e93 df3d d000 8e3c 3470 763d 9e5e 913d
00000150: 00b3 e7ba bcf7 9bbd 4aab e53d 6e76 bc3d
00000160: 200d f5bb 488a 0dbd 661e e73d d41f 623d
00000170: 0634 c23d fc87 39bd f4e1 06bd 803d 873b
00000180: 3027 c1bd b6a2 cdbd 90b2 efbd 5e78 8ebd
00000190: fefe afbd 809b a9bd 208b c9bc 28bf c13d
000001a0: 3a7d ac3d c644 e23d 20d1 293c e837 bc3d
000001b0: 7cd7 8d3d 9096 a1bc 8a3b 8e3d be19 82bd
000001c0: 14a3 403d f00e 4f3c e09b e03c a4b7 d3bd
000001d0: baf9 903d f071 2bbd ea72 b0bd f489 933d
000001e0: 48db 9f3d 4041 89bb 00d8 ab38 4007 dd3c
000001f0: 2ecd de3d 9cce ecbd 10bc 823c 62d7 813d
00000200: 185d b3bd 3e45 8cbd ca19 a2bd f062 8fbc
00000210: 8004 aabd 78ef 97bd a041 c6bd ace3 d4bd
00000220: 98de a53c 5ac2 8d3d 8cb8 0a3d 8009 85ba
00000230: 7a61 edbd 8a4f e93d 0089 473b 8c98 d53d
00000240: c4c3 773d d088 a33c 7452 8f3d e027 923d
00000250: be83 d3bd cc29 76bd 70fe 3c3c f62a babd
00000260: 8051 52bc d222 d23d 0099 993d 50b6 6cbd
00000270: a87e 6cbd 80ff 963d 0453 c7bd b040 bcbd
00000280: 9882 653d 22b7 debd 7ac3 a9bd a82d e83d
00000290: 2ca6 ac3d 8033 a73a 84e8 3f3d d82c 4a3d
000002a0: c6af debd 021f 80bd 5a9c ab3d e6c1 d6bd
000002b0: 60c8 ca3d cebd b6bd f441 973d c087 7b3c
000002c0: 5092 133d 7874 5cbd fcde b83d 0a65 96bd
000002d0: a288 99bd 60fe 1abc 3496 1bbd 729d c6bd
000002e0: 806a bf3c a6af e23d 1a50 dfbd 64d2 9fbd
000002f0: 1881 663d 80e3 69bc dcdd ba3d e0fe 053c
00000300: 3c09 933d a49a babd b005 3cbd bc7f 883d
00000310: 1475 1abd dadf dabd b067 9f3c 8859 493d
00000320: e6b6 ee3d ba0c a9bd 6879 c63c de8f bbbd
00000330: ec66 ea3d b892 d43d d06e c7bc 9095 5d3d
00000340: 6091 c53c b6e1 b43d ace8 933d b465 76bd
00000350: 2845 7c3d 94a0 a8bd e894 f23c 0805 823d
00000360: 90af 4fbd 1c9a 3ebd 2065 d4bc f8cb 0d3d
00000370: b45e 883d 72c8 b1bd 4066 8d3c 0abf e5bd
00000380: b0cd f13c 84d6 b1bd d0e0 733d 5868 d43d
00000390: 3018 4a3c 5c77 9a3d 4872 eb3c b4eb 02bd
000003a0: 3e7a f0bd 109e 893c c0dc 853b 6c9c 67bd
000003b0: b021 ffbd 6ca4 b3bd 3e42 ebbd b4f0 39bd
000003c0: fecc bebd 1e5a b43d 6452 dcbd 48e8 e6bc
000003d0: 3c4f bb3d e094 24bd 9a04 8fbd c004 f23b
000003e0: b438 343d 8c1c 43bd f4b2 b6bd e0f4 86bd
000003f0: 689f 34bd e464 fcbd f235 bcbd 84be c0bd

layers.2.bias f4 [32]
0.11439158 -0.00788182 -0.033838123 0.10364477 0.09337062 0.10871574 0.09259534 -0.060936987
0.10595022 -0.03444448 0.0123856515 0.0030381233 0.104082406 -0.031794935 -0.049372047 0.099610314
0.06362474 0.024921343 0.033192813 -0.011700079 -0.05352184 -0.008096606 0.07034184 -0.02456674
0.03148228 -0.11998223 0.09329866 0.10092741 0.008907869 -0.11278811 -0.06834626 0.124651685
00000000: 2246 ea3d c022 01bc d899 0abd b643 d43d
00000010: 1839 bf3d 5ca6 de3d a0a2 bd3d 1099 79bd
00000020: 6efc d83d a815 0dbd 30ed 4a3c 401b 473b
00000030: 2829 d53d 683b 02bd 583a 4abd 7e00 cc3d
00000040: b04d 823d d827 cc3c 30f5 073d b0b1 3fbc
00000050: b839 5bbd a0a7 04bc 620f 903d 3040 c9bc
00000060: 90f3 003d 3eb9 f5bd 5e13 bf3d 08b3 ce3d
00000070: 50f2 113c 74fd e6bd 20f9 8bbd 6249 ff3d

layers.4.weight f4 [1, 32]
0.06630626 0.15721677 -0.047174126 -0.039674908 0.017070591 -0.0962544 -0.059516028 0.08526401
0.112877294 -0.052144878 0.10879789 -0.15214312 -0.14225686 0.039849818 -0.14916648 -0.113787554
-0.06105087 0.1081285 -0.017330587 -0.041540608 -0.10390669 0.03892316 0.008401528 0.059283838
0.038648307 -0.13283312 -0.028829962 -0.118180305 0.04638596 -0.09544672 -0.13517931 -0.1527096
00000000: 94cb 873d 6ffd 203e a839 41bd 2882 22bd
00000010: a0d7 8b3c 0721 c5bd 14c7 73bd e69e ae3d
00000020: 362c e73d de95 55bd 6ed1 de3d 68cb 1bbe
00000030: c8ab 11be 9039 233d 19bf 18be 7309 e9bd
00000040: 7a10 7abd 7a72 dd3d e0f8 8dbc 7c26 2abd
00000050: 08cd d4bd e46d 1f3d 90a6 093c 9cd3 723d
00000060: b04d 1e3d 6805 08be d02c ecbc 8408 f2bd
00000070: 34ff 3d3d 9279 c3bd 726c 0abe e85f 1cbe
