ml-workbench-service/profiling_output/models/sample_pt_model.pt (torch, 14104 bytes, 5 tensors)

layers.0.weight f4 [64, 10]
0	0xbdc49db8	-0.09600395
1	0xbe8a8191	-0.27051976
2	0xbe665c7a	-0.22496215
3	0xbdf2b104	-0.11850169
4	0xbe96654a	-0.29374152
5	0x3b158c00	0.0022819042
6	0x3ca08180	0.019593
7	0x3e9864ab	0.29764304
8	0xbd850ab8	-0.06496185
9	0x3ddcc620	0.10779977
10	0xbd940490	-0.07227433
11	0xbe836506	-0.25663012
12	0x3e747e16	0.23876223
13	0x3e05d850	0.13070798
14	0x3de8ecf8	0.11373323
15	0x3e29d0b0	0.16583514
16	0x3e876d73	0.2645069
17	0xbddfd66e	-0.10929571
18	0x3d8543a0	0.06507039
19	0xbdb46eb2	-0.08810176
20	0x3e930a11	0.28718618
21	0xbe12b919	-0.14328422
22	0x3e8ed5e5	0.27897564
23	0xbe644939	-0.22293557
24	0x3e8cfbad	0.27535763
25	0x3d9b1680	0.07572651
26	0xbe42264c	-0.18959922
27	0x3c37c0e0	0.011215419
28	0x3e611f52	0.21984604
29	0xbd782a68	-0.060587317
30	0xbdf6555a	-0.12027998
31	0xbdeed134	-0.11660996
32	0x3e97dc61	0.29660323
33	0xbe623c07	-0.22093211
34	0xbe8d7657	-0.2762935
35	0xbe56ed36	-0.20988926
36	0xbcbb29e0	-0.022847116
37	0xbcc74a70	-0.024327487
38	0x3dcc59ac	0.09978041
39	0x3dcc5044	0.09976247
40	0xbe345eab	-0.17614238
41	0x3e4feda6	0.203055
42	0xbe5a960e	-0.21346304
43	0xbe748cb0	-0.23881793
44	0xbe93aef5	-0.2884442
45	0x3ea02c9f	0.31284043
46	0x3e8828bf	0.26593587
47	0x3cb51c60	0.022108257
48	0x3e8e4187	0.27784368
49	0x3dc7c4d0	0.09754336
50	0x3e13ca26	0.14432582
51	0x3e41b066	0.18914947
52	0xbda8ef0e	-0.08248721
53	0xbe88da00	-0.2672882
54	0xbe6045e6	-0.21901664
55	0xbe09e94c	-0.13467902
56	0xbe2f32df	-0.1710925
57	0xbd3db3e0	-0.04631412
58	0xbdfb9848	-0.12284905
59	0x3c278660	0.010224909
60	0x3da3af74	0.079924494
61	0xbdea4fae	-0.11440979
62	0xbe77b05c	-0.2418837
63	0xbd83bd74	-0.0643262
64	0x3e76eed2	0.2411454
65	0x3d5412f8	0.051775903
66	0xbe9b5494	-0.30337965
67	0xbdece906	-0.11567883
68	0xbe8899c8	-0.26679826
69	0xbe2f1ca8	-0.17100775
70	0xbe3fbb20	-0.18723726
71	0x3ea050a9	0.3131154
72	0xbe1ebf45	-0.15502651
73	0xbe71dd8c	-0.2361967
74	0x3d9cc12c	0.07654032
75	0x3df160e8	0.117860615
76	0xbd8f9dce	-0.07012521
77	0xbd288720	-0.04114449
78	0x3e4e43d6	0.20143065
79	0xbd9a2e68	-0.075283825
80	0xbe630fd5	-0.22174008
81	0x3e8c2dd5	0.27378717
82	0xbe832828	-0.25616574
83	0xbe3a71c5	-0.18207462
84	0xbc9c2b90	-0.019063741
85	0xbe1c962d	-0.15291663
86	0x3cfc7ce0	0.030821264
87	0xbd334110	-0.04376322
88	0x3e04c5a2	0.12966016
89	0x3e03256a	0.12807241
90	0xbc8ca7b0	-0.017169803
91	0x3e216956	0.15762839
92	0xbe28bd79	-0.16478528
93	0xbe576d6e	-0.21037838
94	0x3dd7dad4	0.10539785
95	0x3e9996e3	0.2999793
96	0x3d8f4d2c	0.06997141
97	0x3e8a1f2f	0.26976916
98	0xbd8ec98e	-0.06972037
99	0xbe9ef278	-0.31044364
100	0x3e84ac11	0.25912526
101	0xbe27a072	-0.16369799
102	0xbe8904c5	-0.2676145
103	0xbdfbbb12	-0.1229154
104	0xbe0b35a7	-0.13594685
105	0x3df0fbec	0.117668
106	0x3d968d50	0.07351172
107	0xbe835004	-0.25646985
108	0x3e805879	0.250675
109	0xbe5e22d8	-0.2169298
110	0xbd87943c	-0.0662007
111	0xbdb3c8ae	-0.08778511
112	0xbe1e2f0f	-0.15447639
113	0x3e841675	0.25798383
114	0xbe160633	-0.14650802
115	0xbdcdc390	-0.10047066
116	0xbd807ac0	-0.06273413
117	0xbe10ee7b	-0.14153473
118	0x3cad5550	0.021158844
119	0xbe9aca09	-0.30232266
120	0x3e633e46	0.22191724
121	0xbe3985e4	-0.18117481
122	0x3d970f24	0.07375935
123	0x3e9ffc89	0.31247357
124	0x3e9eb1f5	0.30995145
125	0x3e83c8bf	0.25739095
126	0xbe9bcb08	-0.30428338
127	0xbe8e8af1	-0.2784038
128	0x3e705bb6	0.23472485
129	0x3e66fc56	0.22557196
130	0xbdc8dfc0	-0.09808302
131	0x3e1d0562	0.15334085
132	0x3e9e3b9d	0.30904856
133	0x3de80b3c	0.11330268
134	0xbe69fbc8	-0.22849953
135	0x3e6dbda6	0.23216876
136	0x3e7b95f2	0.24568918
137	0xbd77e9d0	-0.060525715
138	0x3c829c00	0.015943527
139	0x3e5e2962	0.21695474
140	0xbe6f4184	-0.23364836
141	0x3d9ec330	0.07752073
142	0x3adeb900	0.001699239
143	0x3d848040	0.06469774
144	0xbe9749a4	-0.2954837
145	0x3e2470a0	0.16058588
146	0xbe255bc0	-0.16148281
147	0x3c099220	0.008396655
148	0xbe8e382b	-0.27777228
149	0x3d6d8a00	0.057992935
150	0x3d7d1fb8	0.061797827
151	0xbe06761b	-0.13130991
152	0x3cfb4e60	0.03067702
153	0xbe4539d6	-0.19260344
154	0xbd849254	-0.064732224
155	0x3e240990	0.16019273
156	0xbe86b647	-0.26310942
157	0xbe6ec7ba	-0.23318377
158	0xbe80d8f5	-0.25165525
159	0xbe605e56	-0.21910986
160	0x3cf22450	0.02955833
161	0x3dbc8088	0.09204203
162	0x3d8b2694	0.067944676
163	0xbe339ff9	-0.17541493
164	0x3e0bd4f2	0.13655451
165	0x3ce33070	0.027733058
166	0x3e6ff0c2	0.23431686
167	0x3de61c44	0.1123586
168	0x3e42d6ae	0.19027206
169	0x3e2faf4a	0.17156711
170	0x3df7cac0	0.12099218
171	0xbe7d65de	-0.2474589
172	0x3e96af0f	0.29430434
173	0xbe40e0fd	-0.18835826
174	0xbe58de38	-0.2117852
175	0x3e2bd510	0.16780496
176	0xbe7ca6a0	-0.24672937
177	0x3e8f450d	0.2798237
178	0xbd553a70	-0.052057683
179	0xbdd60bc0	-0.1045146
180	0x3e32435a	0.17408505
181	0xbea1aefc	-0.31578815
182	0x3d938ce0	0.07204604
183	0xbe021064	-0.12701565
184	0xbe7a6770	-0.24453521
185	0xbe43bf8e	-0.19116041
186	0x3de701c8	0.112796366
187	0x3da9eb48	0.082968295
188	0x3de32174	0.11090365
189	0x3d936a70	0.07198036
190	0xbd9eaace	-0.07747422
191	0xbe92b35c	-0.28652465
192	0x3e2cb72a	0.16866747
193	0xbd50cba0	-0.050975442
194	0x3e344492	0.17604282
195	0x3e38209a	0.17981187
196	0x3e8025f1	0.25028947
197	0xbd731e28	-0.05935493
198	0x3c047c40	0.008086264
199	0x3d4d06d0	0.050055325
200	0x3d32ca88	0.04365018
201	0xbe7d6f92	-0.24749592
202	0xbd2d2210	-0.042268813
203	0xbe264d2e	-0.16240379
204	0xbd843308	-0.06455046
205	0xbdf38570	-0.118906856
206	0xbe5161f8	-0.20447528
207	0xbe8469a5	-0.2586185
208	0xbe2d0796	-0.16897425
209	0x3e4f8ee6	0.20269355
210	0xbda2f612	-0.079570904
211	0xbe86c43b	-0.26321587
212	0xbe0ead74	-0.13933355
213	0xbb04be00	-0.002025485
214	0x3dd665a0	0.10468602
215	0x3ea1615d	0.31519595
216	0xbe85ef3a	-0.26159078
217	0x3e924003	0.28564462
218	0x3cf11480	0.02942872
219	0xbd678e68	-0.056532294
220	0x3cf95510	0.030436069
221	0xbd8a5774	-0.067549616
222	0x3e18b0d6	0.14911208
223	0xbe880e4f	-0.26573417
224	0xbe15b81f	-0.14621018
225	0x3e3f989a	0.18710557
226	0x3e0ab708	0.13546383
227	0xbdaeabc6	-0.08528857
228	0xbea0c9a2	-0.31403834
229	0x3ea1225d	0.3147153
230	0xbd6d5508	-0.05794242
231	0xbe284966	-0.1643425
232	0xbd89a2c4	-0.06720498
233	0xbde1e076	-0.11029141
234	0x3d4b6da0	0.049665093
235	0x3decb848	0.11558586
236	0x3e232252	0.15931061
237	0xbdbdd5dc	-0.09269306
238	0x3e638312	0.22217968
239	0xbe3081b2	-0.17236975
240	0xbda9afda	-0.08285494
241	0x3e25b3a4	0.16181809
242	0xbdf59f20	-0.11993241
243	0xbe664a62	-0.22489312
244	0x3d622310	0.05520922
245	0x3e8e9b05	0.27852646
246	0x3e4d9562	0.20076516
247	0xbe76f7c8	-0.24117959
248	0xbe552a40	-0.20816898
249	0x3d87f2f4	0.066381365
250	0xbd4cbcf8	-0.049984902
251	0x3d397f88	0.04528764
252	0x3c9ca330	0.019120783
253	0xbe628824	-0.22122246
254	0xbe8e7ccb	-0.27829584
255	0x3ea13067	0.3148224

layers.0.bias f4 [64]
0	0x3e935e75	0.28783002
1	0x3e95892d	0.2920622
2	0xbe06fb23	-0.13181739
3	0x3c3cafc0	0.011516511
4	0x3e92bb53	0.28658542
5	0x3e0d5932	0.13803557
6	0xbe114f56	-0.1419042
7	0xbd023dd8	-0.03179726
8	0xbe3a4082	-0.1818867
9	0x3e82a8c5	0.25519386
10	0xbdc3ca84	-0.09560111
11	0xbdc2e37e	-0.09516047
12	0xbe1a1196	-0.15045771
13	0xbe9963e2	-0.29959017
14	0x3e5c48d2	0.21512154
15	0x3e274492	0.16334751
16	0x3e68312e	0.2267501
17	0xbea1dafa	-0.31612378
18	0x3e94ee65	0.2908813
19	0x3d33ed50	0.04392749
20	0xbe9ccfe2	-0.30627352
21	0xbe156774	-0.14590245
22	0x3e634d9a	0.22197571
23	0x3e1fc454	0.15602237
24	0x3b428200	0.0029679537
25	0x3e0a0fdc	0.13482612
26	0xbe87aa70	-0.2649722
27	0xbe75998a	-0.23984352
28	0xbe6d02de	-0.23145625
29	0x3e9204b5	0.28519216
30	0xbe5bdf14	-0.21471816
31	0xbe2a5223	-0.16632895
32	0xbe4db89f	-0.20089959
33	0xbdfb957e	-0.12284373
34	0xbdec8c60	-0.11550212
35	0xbe86e7bc	-0.26348674
36	0x3dead808	0.11466986
37	0xbe2ec060	-0.17065573
38	0xbd776960	-0.060403228
39	0xbcc25220	-0.0237208
40	0xbe8bc5a8	-0.27299237
41	0xbd885c3e	-0.06658219
42	0xbe0743c5	-0.13209446
43	0x3dc1f324	0.094702035
44	0xbd9c0a9a	-0.076192096
45	0x3e3a4ff8	0.18194568
46	0x3cc2c930	0.023777574
47	0xbe0940c5	-0.13403614
48	0xbe11ab72	-0.14225557
49	0xbdba53f4	-0.09098044
50	0xbd35ec40	-0.04441476
51	0x3e9d2e81	0.30699542
52	0x3d7f5b30	0.062342823
53	0xbe2a395f	-0.16623448
54	0xbdca5f28	-0.09881431
55	0xbe1649c6	-0.1467658
56	0xbe05a456	-0.1305097
57	0x3e9d174f	0.30681846
58	0xbea187bf	-0.3154888
59	0x3e8e0741	0.2773991
60	0xbcb73410	-0.022363693
61	0x3e9107c1	0.28326228
62	0x3e7f48d2	0.24930122
63	0x3e90fa57	0.28315994

layers.2.weight f4 [32, 64]
0	0x3de7efb6	0.11325018
1	0xbd9fada6	-0.07796793
2	0xbd85ed5a	-0.06539412
3	0xbc834a50	-0.016026646
4	0x3d73aa60	0.059488654
5	0x3cc25c20	0.02372557
6	0x3c90e1d0	0.0176858
7	0x3dde3ce8	0.10851461
8	0xbce23088	-0.027611032
9	0x3dee9eac	0.11651358
10	0xbab53780	-0.0013825744
11	0xbd0e97ec	-0.034812853
12	0xbd54eb70	-0.051982343
13	0x3b372400	0.0027945042
14	0x3db597fc	0.08866879
15	0x3bdd0420	0.0067448765
16	0xbd42290c	-0.047402427
17	0xbdf90e8c	-0.12160978
18	0xbd83b2f8	-0.0643062
19	0x3c0ad4f0	0.00847362
20	0x3c9bd0b0	0.019020408
21	0x3c88b7c0	0.016689181
22	0x3d271074	0.040787175
23	0x3d0ab054	0.033859566
24	0xbcc7e718	-0.024402186
25	0x3d89f00a	0.06735237
26	0xbd57cd18	-0.052685827
27	0xbda7eddc	-0.08199665
28	0x3de892ce	0.11356126
29	0xbd42d200	-0.047563553
30	0xbd0999ec	-0.033594057
31	0x3bf14240	0.007362634
32	0x3d78df88	0.06076005
33	0xbd99848e	-0.07495986
34	0xbdb7f28c	-0.08981809
35	0xbdd9b3a0	-0.10629964
36	0x3c906c00	0.017629623
37	0xbdd2363e	-0.10264252
38	0xbc2bb430	-0.010479972
39	0x3d46a8e0	0.048500896
40	0x3dcc07cc	0.09962425
41	0x3d860994	0.06544796
42	0x3d71d8fc	0.059044823
43	0x3ddac48c	0.106820196
44	0x3d549958	0.051904052
45	0x3a364400	0.0006952882
46	0xbca10928	-0.019657686
47	0xbdf7c9d0	-0.120990396
48	0x3d593398	0.05302772
49	0xbba620a0	-0.005069807
50	0x3dd02cd4	0.101648
51	0x3dbe5e88	0.09295374
52	0xbc46da50	-0.012137011
53	0x3d95c12e	0.07312237
54	0xbd18a1e0	-0.03726375
55	0xbdebdace	-0.11516343
56	0xbdc3339a	-0.095313266
57	0x3d2abcc0	0.041683912
58	0x3d0fb338	0.035083026
59	0xbcb26410	-0.02177623
60	0x3d0cea9c	0.03440343
61	0x3d9ce3b2	0.07660617
62	0x3ac90480	0.0015336424
63	0xbd1b0f94	-0.037856653
64	0xbd272030	-0.04080218
65	0xbd6d88c4	-0.057991758
66	0x3cef3ad0	0.029202849
67	0x3d69aa70	0.057047307
68	0x3dd6700e	0.104705915
69	0xbdc99f0e	-0.098447904
70	0x3d9ec03a	0.07751508
71	0x3d264f40	0.040602922
72	0x3bd3e320	0.0064662844
73	0xbdcdf0a0	-0.10055661
74	0xbcc16ac0	-0.023610473
75	0xbdc944ac	-0.09827551
76	0xbd740c60	-0.059582114
77	0xbddfb7e6	-0.10923748
78	0x3c1ac780	0.009446979
79	0xbba4a740	-0.0050248206
80	0xbbeef380	-0.007292211
81	0xbdd057a4	-0.10172966
82	0xbdca18b4	-0.09867993
83	0x3bbfd760	0.005854532
84	0xbd92a756	-0.07160823
85	0xbc8e07d0	-0.01733771
86	0x3d76f718	0.06029424
87	0x3d2dd6b4	0.042441085
88	0xbd7a6a74	-0.061136678
89	0x3c3e1210	0.011600986
90	0x3cb4ca58	0.022069141
91	0x3d1c55c8	0.038167745
92	0x3df81d50	0.12114966
93	0xbb297dc0	-0.0025862306
94	0x3c0c57c0	0.008565843
95	0xbd4f3ff8	-0.050598115
96	0xbd827d54	-0.06371561
97	0xbd1bd100	-0.038041115
98	0xbd8913b2	-0.0669321
99	0x3dd34cf6	0.103174135
100	0x3be674c0	0.0070329607
101	0x3cdbdb38	0.02683793
102	0x3d5d1544	0.05397536
103	0xbcf0a090	-0.029373437
104	0xbda2b3c2	-0.07944442
105	0x3d3ab29c	0.04558049
106	0xbdb723e6	-0.08942394
107	0x3d3bb528	0.04582706
108	0xbcf9af50	-0.030479103
109	0x3d456f38	0.04820177
110	0xbde66b9a	-0.11250992
111	0xbde9e7a8	-0.11421138
112	0xbd3aad18	-0.04557523
113	0x3ccb9298	0.024850175
114	0xbdcf3ef8	-0.10119432
115	0x3d901694	0.070355564
116	0xbc959ce8	-0.018263295
117	0xbdf77b12	-0.12084021
118	0x3dbfef86	0.09371857
119	0xbdd5566c	-0.10416874
120	0xbda878ae	-0.08226143
121	0x3dc59e9e	0.096493945
122	0x3de204b8	0.11036056
123	0x3d92104c	0.07132015
124	0xbbd1a600	-0.0063979626
125	0xbc01be30	-0.007918879
126	0xbdd9f0f6	-0.10641663
127	0xbcc1e780	-0.023669958
128	0xbdaaac74	-0.08333674
129	0x3ce616c8	0.028087035
130	0xbcf72130	-0.030167192
131	0x3dbb010a	0.091310576
132	0xbdb77868	-0.089585125
133	0xbd75afac	-0.059981987
134	0xbd559c14	-0.0521508
135	0xbddc7516	-0.1076452
136	0x3db5ed1c	0.08883116
137	0xbd5f690c	-0.05454354
138	0x3d82a044	0.063782245
139	0xbdbbea08	-0.09175497
140	0x3ccf4920	0.025303423
141	0x3d421120	0.047379613
142	0xbd6537b0	-0.05596131
143	0x3c9f2f88	0.019431844
144	0xbc836ff0	-0.016044587
145	0x3d4476f4	0.047965005
146	0xbcad98a8	-0.021190956
147	0xbd30afc8	-0.043136388
148	0xbbc89b00	-0.006121993
149	0xbd633324	-0.055468693
150	0x3c261010	0.010135666
151	0x3c260ff0	0.010135636
152	0x3ce3ff48	0.027831689
153	0xbd19ded4	-0.03756602
154	0x3b3dcd80	0.00289616
155	0x3dca7218	0.09885043
156	0xbdf174ac	-0.117898315
157	0xbdb9a3f0	-0.09064472
158	0x3d552ea8	0.052046448
159	0xbcac69c8	-0.021046534
160	0xbd08249c	-0.03323804
161	0x3cc984a8	0.024599388
162	0x3cc5a2b0	0.024125427
163	0xbdf7d96a	-0.12102015
164	0x3d799b2c	0.060939
165	0xbc0532b0	-0.008129761
166	0xbd9dc554	-0.07703653
167	0xbd05d384	-0.03267242
168	0x3dd8747a	0.10569091
169	0x3d76ea20	0.060281873
170	0x3dff9fc8	0.12481648
171	0x3c8d0f80	0.017219305
172	0x3de4a77c	0.111647576
173	0x3d0a3970	0.033746183
174	0xbc186470	-0.00930129
175	0xbde5fa92	-0.11229433
176	0xbdbf158a	-0.0933028
177	0xbdb28312	-0.08716406
178	0x3d235b54	0.03988202
179	0xbce706d8	-0.028201506
180	0xbcba0120	-0.022705615
181	0x3dd6f2fa	0.10495563
182	0xbd8b7254	-0.06808916
183	0x3da6447e	0.081185326
184	0x3cc37148	0.023857728
185	0xbc846800	-0.016162872
186	0xbdd6d7f6	-0.1049041
187	0x3d8461fc	0.064640015
188	0xbd0ff018	-0.03514108
189	0xbd051a50	-0.032495797
190	0xbb8c6820	-0.0042848736
191	0xbd94e454	-0.07270113
192	0xbdc132d6	-0.09433524
193	0xbda399c2	-0.07988311
194	0xbdbdfe1c	-0.09276983
195	0x3ddd6bfc	0.10811612
196	0x3dbf2a80	0.09334278
197	0x3dc3188e	0.09526168
198	0xbc84ecc8	-0.016226187
199	0xbd066670	-0.032812536
200	0xbdc5f850	-0.096665025
201	0xbd81f23c	-0.06345031
202	0xbda66d18	-0.08126277
203	0xbdde2454	-0.10846773
204	0xbdd9d7ba	-0.1063685
205	0xbc6e3000	-0.014537811
206	0xbd4e8258	-0.050417274
207	0x3dc906a2	0.09815718
208	0xbbb9b3e0	-0.0056671947
209	0xbdc538c0	-0.09629965
210	0x3ccda180	0.025101423
211	0xbd36f890	-0.04467064
212	0xbd82bc04	-0.063835174
213	0xbc93ead8	-0.018056318
214	0xbd5b313c	-0.05351375
215	0x3c2dbdb0	0.010604307
216	0x3dd72de6	0.10506801
217	0xbdc66b64	-0.09688452
218	0x3d3019c8	0.042993337
219	0xbc8e7818	-0.01739125
220	0x3dcb1322	0.09915759
221	0xbd6689a4	-0.056283608
222	0xbd5a67a8	-0.05332151
223	0x3d9b0c26	0.075706765
224	0xbd92e5fc	-0.07172772
225	0xbd27f21c	-0.041002378
226	0x3db8849c	0.09009668
227	0x3dc10356	0.094244644
228	0xbd9b532a	-0.07584222
229	0x3d749cb0	0.05971974
230	0xbd1d4e70	-0.038404882
231	0xbd376e44	-0.044782892
232	0x3d8d3e86	0.06896691
233	0x3dca9f78	0.098936975
234	0xbd0ffc18	-0.035152525
235	0xbd341a10	-0.043970168
236	0x3d175fbc	0.036956534
237	0xbdd01852	-0.10160889
238	0x3d2e2084	0.042511478
239	0x3dea5220	0.11441445
240	0xbcffa278	-0.0312054
241	0xb9c20000	-0.00037002563
242	0x3d6f7dec	0.058469698
243	0xbd0e84bc	-0.034794554
244	0x3d9bac60	0.07601237
245	0x3cc636f8	0.024196133
246	0xbd8e2bea	-0.0694197
247	0x3d7d3594	0.061818674
248	0x3dbfc164	0.09363058
249	0x3b59db80	0.0033242404
250	0x3db84abe	0.08998631
251	0xbcf81ef0	-0.03028819
252	0x3bd9e4e0	0.0066495985
253	0xbc4e0230	-0.012573764
254	0xbd765c64	-0.060146704
255	0x3d69da60	0.057093024

layers.2.bias f4 [32]
0	0xbd86cb8c	-0.06581792
1	0x3d71dae4	0.05904664
2	0x3dca02f0	0.098638415
3	0xbc789a40	-0.015173495
4	0xbbd17240	-0.0063917935
5	0xbdf8e0a0	-0.12152219
6	0xbdd08450	-0.101814866
7	0xbc4167d0	-0.011804536
8	0xbd1b76dc	-0.03795515
9	0x3dcc9cde	0.099908575
10	0x3decfa38	0.11571163
11	0x3b8c8900	0.0042887926
12	0x3de91408	0.11380774
13	0x3d110f74	0.035415128
14	0x3ddd6fc6	0.10812335
15	0x3ca3a0f8	0.019974217
16	0xbd891670	-0.06693733
17	0xbd8bb2e2	-0.068212286
18	0x3de9dca8	0.1141904
19	0xbdd1feb2	-0.102536574
20	0x3d50f184	0.051011577
21	0x3d6730f8	0.056443185
22	0xbcc911b0	-0.024544567
23	0x3ddf96a4	0.10917404
24	0xbdbd3a64	-0.09239653
25	0xbdfad928	-0.122484505
26	0xbd42b3ec	-0.047534868
27	0x3d889c4c	0.06670436
28	0x3d2689dc	0.040658817
29	0x39d24000	0.00040102005
30	0xbd380cdc	-0.04493414
31	0xbd3cae70	-0.046064794

layers.4.weight f4 [1, 32]
0	0x3d3783d0	0.04480344
1	0x3d281b50	0.041041672
2	0xbd8cbd9f	-0.06872105
3	0x3d5866c4	0.05283238
4	0xbdfcca66	-0.12343292
5	0xbda861b7	-0.082217626
6	0x3ba1fea0	0.0049436837
7	0x3d0e5a14	0.034753874
8	0xbc280c90	-0.010256901
9	0x3e2678ff	0.16257094
10	0xbd09cd44	-0.033643022
11	0xbd740c88	-0.059582263
12	0xbe003e6a	-0.12523809
13	0x3db1f722	0.08689715
14	0x3ca19e50	0.01972881
15	0x3dcaccca	0.09902342
16	0x3dc5bc0a	0.09655006
17	0x3d0551e0	0.032548785
18	0x3d811672	0.06303109
19	0xbe035aea	-0.1282765
20	0x3d850160	0.06494403
21	0x3e2124ed	0.15736742
22	0xbdd64fa7	-0.10464411
23	0xbe2143e9	-0.15748562
24	0x3e26b7b5	0.16281016
25	0xbdd5a13d	-0.104311444
26	0xbe051cfd	-0.1299934
27	0xbd344c98	-0.044018358
28	0x3e0dff7f	0.13866995
29	0xbe0a5ab9	-0.1351117
30	0xbd1fc800	-0.039009094
31	0xbd57e07c	-0.05270432
